layout_optimization/basic_model.npy (npy, 32456 bytes, 1 tensors)

array f8 [1347, 3]
00000000: 1308 0292 af1e 11c0 e388 d84d 9997 2740
00000010: ada3 f6fb 0a20 05c0 075a e5fa 1ea1 12c0
00000020: c0e3 d0e8 6bf2 2540 3fa4 8978 99f2 00c0
00000030: b9ed 11a5 2fb2 11c0 038a 6dba c27e 2140
00000040: cf7c 139a 751d 03c0 1dcc b5fa f9c0 10c0
00000050: d453 f8e1 b8bc 1b40 b08f deeb 1375 00c0
00000060: 75cd cb23 6b5b 0ec0 ad7a cf4d 1e51 1c40
00000070: 6017 90b8 6e88 05c0 ae95 2f2d 69c6 12c0
00000080: 6a7d 7970 c3d1 2340 0f8a bd03 1442 02c0
00000090: 482b a87b 0cd3 11c0 0e74 80e4 f0b6 2240
000000a0: 36ca 584e 5654 fbbf db83 94d6 89cf 08c0
000000b0: 35d0 29ae 0885 1f40 ae23 b3a6 9ecc 08c0
000000c0: ce1e b168 c293 11c0 22d1 5a09 e81c 1e40
000000d0: 46a2 f15f 1beb f9bf 9277 1e60 80cb 10c0
000000e0: dd73 c542 89c5 1f40 e6d9 698a fdde f1bf
000000f0: 6b1c 3b77 5117 10c0 e6d1 3053 1ab9 2440
00000100: b4fc d7e0 ff9b f8bf aa1f 377a b49c 0fc0
00000110: 6fa1 0a1b 74bb 2140 106b 0881 e07e f1bf
00000120: 7690 483e 61c3 07c0 abe4 37ac 02bc 2140
00000130: a552 3a99 58d0 efbf 180f 63df fb2d f7bf
00000140: c5e4 ae01 c665 2040 cac9 8b1c ad87 f0bf
00000150: c9a6 4170 eaac 10c0 b3fc f5cb 62a7 1640
00000160: e337 e8d1 cfc1 01c0 5fe7 fc76 d970 0dc0
00000170: 8c02 c959 2555 1340 1a26 032c 859c 05c0
00000180: 7092 2216 0124 10c0 2ed0 9b96 6f5a 0f40
00000190: fafc b1bf 8b0a 00c0 e3c2 5e34 a871 03c0
000001a0: 4031 6d4c e146 2140 d36a 9ed8 2f7a 09c0
000001b0: e13c dd96 3022 00c0 1ad7 849e 8407 1a40
000001c0: 304f 93ce 0eb1 0ac0 95ee c2c7 d184 06c0
000001d0: bd75 62f0 89f8 1540 8c05 226c c536 09c0
000001e0: 4711 5870 1ac5 f6bf f144 4f8b dbb0 1240
000001f0: 00af f591 f091 0ac0 2a9a dc70 21fe 0ac0
00000200: 5b1e 2b89 4317 0640 2496 b963 d5df 03c0
00000210: 51dd 3e76 78d7 07c0 ae8f 53bc f6e2 ed3f
00000220: 4541 b53e 3fbb 02c0 7d48 c339 956a 02c0
00000230: dec6 3ba1 453d cabf abed ea9d d295 03c0
00000240: 63be f501 b2b1 0cc0 80cd 5329 c143 f93f
00000250: 7a19 a102 a41d ffbf 2d9f f891 8078 03c0
00000260: 6821 386a db74 0a40 a834 b051 16a6 07c0
00000270: e7d9 0281 23d9 eebf 8656 1d80 231d 0240
00000280: fd22 0cfd a53f 08c0 a894 6b64 33b1 ffbf
00000290: 74d6 3813 f8ba f33f e0a8 3797 33b3 05c0
000002a0: 4950 2832 9ea0 f5bf d9d8 5b1e a1ba 1f40
000002b0: 7ecb 1158 9d49 0ac0 fda3 0720 d67a e9bf
000002c0: 1ed6 5075 d148 1a40 3ebd 7e78 f1b5 0bc0
000002d0: d9ef 31ec d704 c4bf 93e7 5272 963e 1440
000002e0: f784 7378 affc 0bc0 bf23 7124 7192 c3bf
000002f0: 26e1 03e4 f820 2040 df39 ea7d ba5f 0bc0
00000300: 0616 bf3b 4c00 d93f 59c4 08b3 ba96 1940
00000310: 02ca 1bfe ae26 0dc0 2bc0 f83a 23f2 b6bf
00000320: 3517 8045 ddbc 2340 1dd3 9813 5dca 09c0
00000330: d513 8f74 6daf fe3f 075a febd a45f 2140
00000340: 097f b128 63c0 fcbf 1dc4 908a 2ec5 f33f
00000350: 9f16 6b9e 9dd7 1240 cc32 1a3c 0e23 0ec0
00000360: 94b0 53dc 6250 c63f 9230 6347 196c 0a40
00000370: 13c1 70d6 4a9a 0ac0 02fc 2653 a49b e03f
00000380: aa2e 8c15 9a56 f13f 6f9b b1cf 665f 09c0
00000390: e868 9157 dc30 f63f 9973 004a e875 0540
000003a0: 6682 9e17 5340 0cc0 596e 9958 55c3 10c0
000003b0: 9e34 1285 dd8f 1440 84b6 7a8f 71ef f5bf
000003c0: 4a01 6f93 e4b1 10c0 5d14 125c 9766 1940
000003d0: 8ac7 839f da90 ecbf e8f0 c719 89c3 0dc0
000003e0: 34a6 d6b8 2c3b 1340 89cb 00ab 1172 d3bf
000003f0: 6e1e 6a45 6081 0cc0 f29f d299 d82d 1c40
00000400: 356d 276b 790b dcbf 18d9 2a66 18cc 02c0
00000410: 8c0d d5ef 6dbe 1d40 65a1 464f 75e9 debf
00000420: 2718 e223 8994 f4bf e820 797c fa10 1940
00000430: 68ec 9d98 c7d0 b9bf 7a35 c214 a23c 09c0
00000440: 803a 6cb0 16aa 1540 4b89 49dd a655 c03f
00000450: 9241 3cf3 bc53 02c0 5dcb 7827 52b4 1740
00000460: 95b5 b86a c185 c43f 979e cf5f 28fa c0bf
00000470: fc1d 2b20 4cdf 1840 d2eb 65f9 1325 d2bf
00000480: 0d9d 004b 9ecf 0fc0 ee0c f758 198b 0540
00000490: 3623 679f 4fce f5bf 6a74 06b1 4c4e 0fc0
000004a0: ea5d ce8c 07be 0b40 1493 a83e 9472 e6bf
000004b0: a897 92ff 3c56 0bc0 1478 8cdf 64a0 0940
000004c0: 2fa5 8b8b bdad c23f 1aca 647f 8cf8 0dc0
000004d0: 82db 5305 aac7 f13f 9e86 73a0 baa7 f6bf
000004e0: 35fd 3122 343f 0ec0 f1ac f411 d271 e23f
000004f0: 5a55 8bfb 2668 ebbf 9103 c8b0 d7bc 0ec0
00000500: 230d 6b10 9d67 fb3f 1d3c 3247 0667 e0bf
00000510: a9c7 406f 29eb 0bc0 da0c d62d 8ca0 fb3f
00000520: 97d0 7516 84a6 d13f de9d 5acf 2f85 0cc0
00000530: a242 1bb4 40d2 d63f 6800 9fa4 683d d63f
00000540: d29d e24f 678d 07c0 a7a7 fa72 02aa 0040
00000550: 9c99 c6cf f07d eb3f 34ea 6939 94ed 04c0
00000560: 28d0 22c4 148b 0e40 66e3 a654 7f73 e53f
00000570: e5e3 0497 7d41 f5bf cc25 7bae 3ffe 1140
00000580: bfd7 ee25 c46b e63f e47c dbd8 ccd0 a93f
00000590: 3562 5663 eeb2 1e40 7ec4 8b81 f595 eebf
000005a0: 4c45 9ab1 3039 ef3f 33c4 a98b c4de 2040
000005b0: ced2 e85c 7091 f6bf 5f09 41c4 5730 0340
000005c0: 44c4 9d5d 03ee 1c40 ba29 e2a4 c497 f7bf
000005d0: 8612 9df5 c94b f53f cc48 9228 0687 1940
000005e0: a401 9c84 c877 e9bf 3686 a83e 0359 0340
000005f0: 830f 11ed 6895 1140 4175 5f6f 8066 e0bf
00000600: 73d1 6734 b697 ef3f f836 f6ad 5c63 1440
00000610: de6c 9546 f07c b6bf 699d 1276 d21d fa3f
00000620: 0602 2102 a066 0e40 edf1 5025 29c9 c73f
00000630: dcea 90d6 b88d fe3f 1efe 62db 808a 0340
00000640: 628f b46d 11fc e03f 5c9b bd2f 0d24 0740
00000650: 8203 9d0b b341 2140 1f8b a26c 87dc ffbf
00000660: e007 7cb3 8e75 fa3f f5cc dc28 fd96 1940
00000670: 52de 24c8 e17a 0ec0 0b15 8b3d 053b 0140
00000680: 04c6 9c8e b3a3 1e40 6279 6021 559e 0dc0
00000690: 42f9 cc5a e20d 0440 9bbe 4f56 1496 1440
000006a0: 4321 4327 d638 0fc0 3b54 3b6d 48fa 0740
000006b0: aa7a d3d0 dc64 1a40 787a acdb 5909 0ec0
000006c0: f894 e014 96e1 0940 cb91 88f7 9a8e 1540
000006d0: 2cee 56d6 1b75 0fc0 e88e ebed 525b 0e40
000006e0: db90 cb59 79bd 2040 a741 e6a7 8a2b 02c0
000006f0: 6f5a 088a a284 0b40 c538 d638 e634 1e40
00000700: 93fc df64 722e febf e95e 6119 3a02 1040
00000710: f9c5 df43 ccc4 1d40 5c01 7a93 dcbe 0ac0
00000720: 4328 a630 3e31 1240 98d0 c8bb df9b 1740
00000730: a8be e4c2 6dd2 0ac0 5a52 16f1 d358 1240
00000740: d9d4 e10d 56f7 1d40 dd07 5cf9 f849 04c0
00000750: f655 50c4 6b71 1340 6a65 a1ef 86e8 1940
00000760: 7c30 ba2f ef14 07c0 59bd 90f2 fa9f 1440
00000770: 146e 496c 09e6 1340 5174 fd41 f4d6 06c0
00000780: 54fc b363 c3a7 0340 a2a3 10d5 2193 0a40
00000790: 635d 019d 43a6 0ec0 66d8 98c1 1ab5 0b40
000007a0: 34bf 934b bc83 1040 d740 0ec9 8e2c 0fc0
000007b0: a681 0760 cd34 0f40 4a3d 726e 369d 1540
000007c0: 55e7 8a63 6529 0ec0 7095 9fd9 e683 1240
000007d0: 0dfb c1b5 3a37 0d40 bd6d 3dc3 2d3f 0bc0
000007e0: 8ff9 a8ea 93e5 1340 296d d9f6 a508 1740
000007f0: b852 1ed5 5152 03c0 76c8 24ef 2b8b 1440
-4.27996662270927 11.796091492350063 -2.640645950760208 -4.657344742058291 10.973479533671593 -2.1184567849163893 -4.4240098755066635 8.747579408523057
-2.389384463996613 -4.188453595491436 6.934299021512704 -2.0571669032378495 -3.794637946755467 7.07921716288426 -2.6916174334500482 -4.693760591534938
9.909694208936987 -2.2822647373407174 -4.456102306498742 9.357306614570941 -1.7080901203559171 -3.1013371242593 7.879915925314028 -3.0999119780940054
-4.394296298800056 7.5282288991623165 -1.619899153500357 -4.198731901034892 7.942906420995283 -1.1169410139824492 -4.022771704657411 10.361528968533957
-1.5380858214337367 -3.9515161083290495 8.866120190665894 -1.0934758224818246 -2.970400320615279 8.867207891295342 -0.9941828720789841 -1.4487265325596521
8.198776295279808 -1.0331240763740532 -4.1688630619116305 5.663462817086088 -2.219634666346779 -3.6801022811823 4.833150294202493 -2.7014258802853535
-4.035160394535168 3.9191581503200927 -2.005149362200993 -2.4304966060084197 8.638437641457699 -3.184661571821701 -2.016694239260332 6.507341839654851
-3.336454023237728 -2.8148532492030633 5.4927136955351985 -3.1517437408335294 -1.4231209171712906 4.6727124945766585 -3.321259632406395 -3.374087220890279
2.761359283092856 -2.484293727017546 -2.980210231584046 0.9339555433511941 -2.341429223925078 -2.302042437812871 -0.20499487278680467 -2.4481556260413604
-3.586765303909304 1.579041634974459 -1.9447364905077777 -2.4338389781950327 3.3070591257457416 -2.9560972577952107 -0.9640061874150064 2.2642278679803125
-3.0310783166245288 -1.9807619021096716 1.233146739088082 -2.712500745187853 -1.3517133673931474 7.932255243640804 -3.2859446411543436 -0.7962446809370928
6.571111519869673 -3.4638394750287764 -0.15639781029665192 5.061120783147902 -3.4983815584424707 -0.15290655402557538 8.064398885224886 -3.4217424237351532
0.39064317545521055 6.3971965765095655 -3.64388845941835 -0.08963222684610687 9.868875667463366 -3.223810341931666 1.917828994091214 8.686803757952488
-1.7969695653518463 1.2356400883402394 4.710562205587535 -3.7671169944281697 0.17432819135808997 3.3027825905938437 -3.325338054004655 0.5189992546146416
1.0836430398657435 -3.171582815749779 1.3869288845658563 2.6825719624889186 -3.531408485913107 -4.1907552570006255 5.140493468509844 -1.370957909074975
-4.1737235104086015 6.350186766246307 -0.8926823726198887 -3.7204763425962604 4.807787788487577 -0.3038372201873974 -3.5631719038972767 7.044771579247014
-0.43820033516176987 -2.34965591257345 7.43596625078079 -0.48299916021144035 -1.2862635995566138 6.266580529111003 -0.10084197498319869 -3.1546060201423503
5.416102177243943 0.12761388592759668 -2.290887737537738 5.926094643352227 0.16033189497958902 -0.13263420751831198 6.218063833839093 -0.2835130630043611
-3.9763761386453838 2.692919440307029 -1.3628689028430023 -3.913232214936717 3.467787838027779 -0.7014867042349544 -3.4171085325824215 3.203317400430942
0.14592713655228226 -3.746361727965689 1.111246128855527 -1.4159494655254217 -3.7808611556535205 0.5763941145609391 -0.8564639008497281 -3.8422082720794113
1.7127962724051222 -0.5125762358237612 -3.4898251239437355 1.7266961851572007 0.2757883281076458 -3.565032596543218 0.35658280933879827 0.3474980933788232
-2.9440447083504546 2.083012483858471 0.8591236169930201 -2.6160053716132783 3.817910702049648 0.6703488019330563 -1.3284889125045478 4.498289800897918
0.7006550541761881 0.050421143981788125 7.6747375031923655 -0.9558055429644268 0.9757312268067522 8.435093273614347 -1.4105075482631722 2.398604901537666
7.232434714083016 -1.4745527687797293 1.3310031503944244 6.381859430244912 -0.7958719816233963 2.418463220136597 4.395908073583885 -0.5125124144794101
0.9872694991632173 5.097033231880907 -0.08784391139254263 1.6322807895865827 3.8001098791430676 0.18582643816070235 1.9096001035201686 2.442628587683216
0.5307700293237583 2.892603276227801 8.62831913272544 -1.9913400882293855 1.6537005435097782 6.397450102306938 -3.810000957131515 2.153818589026405
7.659864643400855 -3.702310810810716 2.506779393558788 5.146561955086919 -3.902752215133803 2.9972084554415495 6.598498595149673 -3.754565921975253
3.2351495390927276 5.3892630269151125 -3.93218200161734 3.794591768981139 8.370066457843157 -2.2712605588096326 3.4397631439017498 7.551659477305468
-1.8863395634105344 4.002174755638159 7.44218545964531 -3.3431941529853884 4.548088798657832 5.9022206631963385 -3.352748415570961 4.586745993602188
7.491539208325059 -2.5361194115839525 4.860762660411174 6.477077240205611 -2.8852218369193547 5.156230726322371 4.974645320874988 -2.854958072230638
2.4569156445791496 3.321841873712814 -3.831183649639273 3.463429939724892 4.128647976773028 -3.8967567164873844 3.90078234694393 5.403527951929684
-3.770212915112021 4.628810310712069 3.6519674491713716 -3.4058490040895024 4.974197069705396 5.758445603390364 -2.415195145595444 5.1359097830010025
